…
NABLE': True,\n","           'EVAL_PERIOD': 10,\n","           'KILL_LOSS_EXPLOSION_FACTOR': 0.0,\n","           'MIXED_PRECISION': False},\n"," 'VIS_MASK': CfgNode({'ENABLE': False}),\n"," 'X3D': {'BN_LIN5': False,\n","         'BOTTLENECK_FACTOR': 1.0,\n","         'CHANNELWISE_3x3x3': True,\n","         'DEPTH_FACTOR': 1.0,\n","         'DIM_C1': 12,\n","         'DIM_C5': 2048,\n","         'SCALE_RES2': False,\n","         'WIDTH_FACTOR': 1.0}}\n","[08/26 02:57:33][INFO] misc.py:  185: Model:\n","ResNet(\n","  (s1): VideoModelStem(\n","    (pathway0_stem): ResNetBasicStem(\n","      (conv): Conv3d(3, 64, kernel_size=(1, 7, 7), stride=(1, 2, 2), padding=(0, 3, 3), bias=False)\n","      (bn): BatchNorm3d(64, eps=1e-05, momentum=0.1, affine=True, track_running_stats=True)\n","      (relu): ReLU(inplace=True)\n","      (pool_layer): MaxPool3d(kernel_size=[1, 3, 3], stride=[1, 2, 2], padding=[0, 1, 1], dilation=1, ceil_mode=False)\n","    )\n","  )\n","  (s2): ResStage(\n","    (pathway0_res0): ResBlock(\n","      (branch1): Conv3d(64, 256, kernel_size=(1, 1, 1), stride=(1, 1, 1), bias=False)\n","      (branch1_bn): BatchNorm3d(256, eps=1e-05, momentum=0.1, affine=True, track_running_stats=True)\n","      (branch2): BottleneckTransform(\n","        (a): Conv3d(64, 64, kernel_size=(1, 1, 1), stride=(1, 1, 1), bias=False)\n","        (a_bn): BatchNorm3d(64, eps=1e-05, momentum=0.1, affine=True, track_running_stats=True)\n","        (a_relu): ReLU(inplace=True)\n","        (b): Conv3d(64, 64, kernel_size=(1, 3, 3), stride=(1, 1, 1), padding=(0, 1, 1), bias=False)\n","        (b_bn): BatchNorm3d(64, eps=1e-05, momentum=0.1, affine=True, track_running_stats=True)\n","        (b_relu): ReLU(inplace=True)\n","        (c): Conv3d(64, 256, kernel_size=(1, 1, 1), stride=(1, 1, 1), bias=False)\n","        (c_bn): BatchNorm3d(256, eps=1e-05, momentum=0.1, affine=True, track_running_stats=True)\n","      )\n","      (relu): ReLU(inplace=True)\n","    )\n","    (pathway0_res1): ResBlock(\n","      (branch2): BottleneckTransform(\n","        (a): Conv3d(256, 64, kernel_size=(1, 1, 1), stride=(1, 1, 1), bias=False)\n","        (a_bn): BatchNorm3d(64, eps=1e-05, momentum=0.1, affine=True, track_running_stats=True)\n","        (a_relu): ReLU(inplace=True)\n","        (b): Conv3d(64, 64, kernel_size=(1, 3, 3), stride=(1, 1, 1), padding=(0, 1, 1), bias=False)\n","        (b_bn): BatchNorm3d(64, eps=1e-05, momentum=0.1, affine=True, track_running_stats=True)\n","        (b_relu): ReLU(inplace=True)\n","        (c): Conv3d(64, 256, kernel_size=(1, 1, 1), stride=(1, 1, 1), bias=False)\n","        (c_bn): BatchNorm3d(256, eps=1e-05, momentum=0.1, affine=True, track_running_stats=True)\n","      )\n","      (relu): ReLU(inplace=True)\n","    )\n","    (pathway0_res2): ResBlock(\n","      (branch2): BottleneckTransform(\n","        (a): Conv3d(256, 64, kernel_size=(1, 1, 1), stride=(1, 1, 1), bias=False)\n","        (a_bn): BatchNorm3d(64, eps=1e-05, momentum=0.1, affine=True, track_running_stats=True)\n","        (a_relu): ReLU(inplace=True)\n","        (b): Conv3d(64, 64, kernel_size=(1, 3, 3), stride=(1, 1, 1), padding=(0, 1, 1), bias=False)\n","        (b_bn): BatchNorm3d(64, eps=1e-05, momentum=0.1, affine=True, track_running_stats=True)\n","        (b_relu): ReLU(inplace=True)\n","        (c): Conv3d(64, 256, kernel_size=(1, 1, 1), stride=(1, 1, 1), bias=False)\n","        (c_bn): BatchNorm3d(256, eps=1e-05, momentum=0.1, affine=True, track_running_stats=True)\n","      )\n","      (relu): ReLU(inplace=True)\n","    )\n","  )\n","  (pathway0_pool): MaxPool3d(kernel_size=[2, 1, 1], stride=[2, 1, 1], padding=[0, 0, 0], dilation=1, ceil_mode=False)\n","  (s3): ResStage(\n","    (pathway0_res0): ResBlock(\n","      (branch1): Conv3d(256, 512, kernel_size=(1, 1, 1), stride=(1, 2, 2), bias=False)\n","      (branch1_bn): BatchNorm3d(512, eps=1e-05, momentum=0.1, affine=True, track_running_stats=True)\n","      (branch2): BottleneckTransform(\n","        (a): Conv3d(256, 128, kernel_size=(1, 1, 1), stride=(1, 1, 1), bias=False)\n","        (a_bn): BatchNorm3d(128, eps=1e-05, momentum=0.1, affine=True, track_running_stats=True)\n","        (a_relu): ReLU(inplace=True)\n","        (b): Conv3d(128, 128, kernel_size=(1, 3, 3), stride=(1, 2, 2), padding=(0, 1, 1), bias=False)\n","        (b_bn): BatchNorm3d(128, eps=1e-05, momentum=0.1, affine=True, track_running_stats=True)\n","        (b_relu): ReLU(inplace=True)\n","        (c): Conv3d(128, 512, kernel_size=(1, 1, 1), stride=(1, 1, 1), bias=False)\n","        (c_bn): BatchNorm3d(512, eps=1e-05, momentum=0.1, affine=True, track_running_stats=True)\n","      )\n","      (relu): ReLU(inplace=True)\n","    )\n","    (pathway0_res1): ResBlock(\n","      (branch2): BottleneckTransform(\n","        (a): Conv3d(512, 128, kernel_size=(1, 1, 1), stride=(1, 1, 1), bias=False)\n","        (a_bn): BatchNorm3d(128, eps=1e-05, momentum=0.1, affine=True, track_running_stats=True)\n","        (a_relu): ReLU(inplace=True)\n","        (b): Conv3d(128, 128, kernel_size=(1, 3, 3), stride=(1, 1, 1), padding=(0, 1, 1), bias=False)\n","        (b_bn): BatchNorm3d(128, eps=1e-05, momentum=0.1, affine=True, track_running_stats=True)\n","        (b_relu): ReLU(inplace=True)\n","        (c): Conv3d(128, 512, kernel_size=(1, 1, 1), stride=(1, 1, 1), bias=False)\n","        (c_bn): BatchNorm3d(512, eps=1e-05, momentum=0.1, affine=True, track_running_stats=True)\n","      )\n","      (relu): ReLU(inplace=True)\n","    )\n","    (pathway0_res2): ResBlock(\n","      (branch2): BottleneckTransform(\n","        (a): Conv3d(512, 128, kernel_size=(1, 1, 1), stride=(1, 1, 1), bias=False)\n","        (a_bn): BatchNorm3d(128, eps=1e-05, momentum=0.1, affine=True, track_running_stats=True)\n","        (a_relu): ReLU(inplace=True)\n","        (b): Conv3d(128, 128, kernel_size=(1, 3, 3), stride=(1, 1, 1), padding=(0, 1, 1), bias=False)\n","        (b_bn): BatchNorm3d(128, eps=1e-05, momentum=0.1, affine=True, track_running_stats=True)\n","        (b_relu): ReLU(inplace=True)\n","        (c): Conv3d(128, 512, kernel_size=(1, 1, 1), stride=(1, 1, 1), bias=False)\n","        (c_bn): BatchNorm3d(512, eps=1e-05, momentum=0.1, affine=True, track_running_stats=True)\n","      )\n","      (relu): ReLU(inplace=True)\n","    )\n","    (pathway0_res3): ResBlock(\n","      (branch2): BottleneckTransform(\n","        (a): Conv3d(512, 128, kernel_size=(1, 1, 1), stride=(1, 1, 1), bias=False)\n","        (a_bn): BatchNorm3d(128, eps=1e-05, momentum=0.1, affine=True, track_running_stats=True)\n","        (a_relu): ReLU(inplace=True)\n","        (b): Conv3d(128, 128, kernel_size=(1, 3, 3), stride=(1, 1, 1), padding=(0, 1, 1), bias=False)\n","        (b_bn): BatchNorm3d(128, eps=1e-05, momentum=0.1, affine=True, track_running_stats=True)\n","        (b_relu): ReLU(inplace=True)\n","        (c): Conv3d(128, 512, kernel_size=(1, 1, 1), stride=(1, 1, 1), bias=False)\n","        (c_bn): BatchNorm3d(512, eps=1e-05, momentum=0.1, affine=True, track_running_stats=True)\n","      )\n","      (relu): ReLU(inplace=True)\n","    )\n","  )\n","  (s4): ResStage(\n","    (pathway0_res0): ResBlock(\n","      (branch1): Conv3d(512, 1024, kernel_size=(1, 1, 1), stride=(1, 2, 2), bias=False)\n","      (branch1_bn): BatchNorm3d(1024, eps=1e-05, momentum=0.1, affine=True, track_running_stats=True)\n","      (branch2): BottleneckTransform(\n","        (a): Conv3d(512, 256, kernel_size=(1, 1, 1), stride=(1, 1, 1), bias=False)\n","        (a_bn): BatchNorm3d(256, eps=1e-05, momentum=0.1, affine=True, track_running_stats=True)\n","        (a_relu): ReLU(inplace=True)\n","        (b): Conv3d(256, 256, kernel_size=(1, 3, 3), stride=(1, 2, 2), padding=(0, 1, 1), bias=False)\n","        (b_bn): BatchNorm3d(256, eps=1e-05, momentum=0.1, affine=True, track_running_stats=True)\n","        (b_relu): ReLU(inplace=True)\n","        (c): Conv3d(256, 1024, kernel_size=(1, 1, 1), stride=(1, 1, 1), bias=False)\n","        (c_bn): BatchNorm3d(1024, eps=1e-05, momentum=0.1, affine=True, track_running_stats=True)\n","      )\n","      (relu): ReLU(inplace=True)\n","    )\n","    (pathway0_res1): ResBlock(\n","      (branch2): BottleneckTransform(\n","        (a): Conv3d(1024, 256, kernel_size=(1, 1, 1), stride=(1, 1, 1), bias=False)\n","        (a_bn): BatchNorm3d(256, eps=1e-05, momentum=0.1, affine=True, track_running_stats=True)\n","        (a_relu): ReLU(inplace=True)\n","        (b): Conv3d(256, 256, kernel_size=(1, 3, 3), stride=(1, 1, 1), padding=(0, 1, 1), bias=False)\n","        (b_bn): BatchNorm3d(256, eps=1e-05, momentum=0.1, affine=True, track_running_stats=True)\n","        (b_relu): ReLU(inplace=True)\n","        (c): Conv3d(256, 1024, kernel_size=(1, 1, 1), stride=(1, 1, 1), bias=False)\n","        (c_bn): BatchNorm3d(1024, eps=1e-05, momentum=0.1, affine=True, track_running_stats=True)\n","      )\n","      (relu): ReLU(inplace=True)\n","    )\n","    (pathway0_res2): ResBlock(\n","      (branch2): BottleneckTransform(\n","        (a): Conv3d(1024, 256, kernel_size=(1, 1, 1), stride=(1, 1, 1), bias=False)\n","        (a_bn): BatchNorm3d(256, eps=1e-05, momentum=0.1, affine=True, track_running_stats=True)\n","        (a_relu): ReLU(inplace=True)\n","        (b): Conv3d(256, 256, kernel_size=(1, 3, 3), stride=(1, 1, 1), padding=(0, 1, 1), bias=False)\n","        (b_bn): BatchNorm3d(256, eps=1e-05, momentum=0.1, affine=True, track_running_stats=True)\n","        (b_relu): ReLU(inplace=True)\n","        (c): Conv3d(256, 1024, kernel_size=(1, 1, 1), stride=(1, 1, 1), bias=False)\n","        (c_bn): BatchNorm3d(1024, eps=1e-05, momentum=0.1, affine=True, track_running_stats=True)\n","      )\n","      (relu): ReLU(inplace=True)\n","    )\n","    (pathway0_res3): ResBlock(\n","      (branch2): BottleneckTransform(\n","        (a): Conv3d(1024, 256, kernel_size=(1, 1, 1), stride=(1, 1, 1), bias=False)\n","        (a_bn): BatchNorm3d(256, eps=1e-05, momentum=0.1, affine=True, track_running_stats=True)\n","        (a_relu): ReLU(inplace=True)\n","        (b): Conv3d(256, 256, kernel_size=(1, 3, 3), stride=(1, 1, 1), padding=(0, 1, 1), bias=False)\n","        (b_bn): BatchNorm3d(256, eps=1e-05, momentum=0.1, affine=True, track_running_stats=True)\n","        (b_relu): ReLU(inplace=True)\n","        (c): Conv3d(256, 1024, kernel_size=(1, 1, 1), stride=(1, 1, 1), bias=False)\n","        (c_bn): BatchNorm3d(1024, eps=1e-05, momentum=0.1, affine=True, track_running_stats=True)\n","      )\n","      (relu): ReLU(inplace=True)\n","    )\n","    (pathway0_res4): ResBlock(\n","      (branch2): BottleneckTransform(\n","        (a): Conv3d(1024, 256, kernel_size=(1, 1, 1), stride=(1, 1, 1), bias=False)\n","        (a_bn): BatchNorm3d(256, eps=1e-05, momentum=0.1, affine=True, track_running_stats=True)\n","        (a_relu): ReLU(inplace=True)\n","        (b): Conv3d(256, 256, kernel_size=(1, 3, 3), stride=(1, 1, 1), padding=(0, 1, 1), bias=False)\n","        (b_bn): BatchNorm3d(256, eps=1e-05, momentum=0.1, affine=True, track_running_stats=True)\n","        (b_relu): ReLU(inplace=True)\n","        (c): Conv3d(256, 1024, kernel_size=(1, 1, 1), stride=(1, 1, 1), bias=False)\n","        (c_bn): BatchNorm3d(1024, eps=1e-05, momentum=0.1, affine=True, track_running_stats=True)\n","      )\n","      (relu): ReLU(inplace=True)\n","    )\n","    (pathway0_res5): ResBlock(\n","      (branch2): BottleneckTransform(\n","        (a): Conv3d(1024, 256, kernel_size=(1, 1, 1), stride=(1, 1, 1), bias=False)\n","        (a_bn): BatchNorm3d(256, eps=1e-05, momentum=0.1, affine=True, track_running_stats=True)\n","        (a_relu): ReLU(inplace=True)\n","        (b): Conv3d(256, 256, kernel_size=(1, 3, 3), stride=(1, 1, 1), padding=(0, 1, 1), bias=False)\n","        (b_bn): BatchNorm3d(256, eps=1e-05, momentum=0.1, affine=True, track_running_stats=True)\n","        (b_relu): ReLU(inplace=True)\n","        (c): Conv3d(256, 1024, kernel_size=(1, 1, 1), stride=(1, 1, 1), bias=False)\n","        (c_bn): BatchNorm3d(1024, eps=1e-05, momentum=0.1, affine=True, track_running_stats=True)\n","      )\n","      (relu): ReLU(inplace=True)\n","    )\n","  )\n","  (s5): ResStage(\n","    (pathway0_res0): ResBlock(\n","      (branch1): Conv3d(1024, 2048, kernel_size=(1, 1, 1), stride=(1, 2, 2), bias=False)\n","      (branch1_bn): BatchNorm3d(2048, eps=1e-05, momentum=0.1, affine=True, track_running_stats=True)\n","      (branch2): BottleneckTransform(\n","        (a): Conv3d(1024, 512, kernel_size=(1, 1, 1), stride=(1, 1, 1), bias=False)\n","        (a_bn): BatchNorm3d(512, eps=1e-05, momentum=0.1, affine=True, track_running_stats=True)\n","        (a_relu): ReLU(inplace=True)\n","        (b): Conv3d(512, 512, kernel_size=(1, 3, 3), stride=(1, 2, 2), padding=(0, 1, 1), bias=False)\n","        (b_bn): BatchNorm3d(512, eps=1e-05, momentum=0.1, affine=True, track_running_stats=True)\n","        (b_relu): ReLU(inplace=True)\n","        (c): Conv3d(512, 2048, kernel_size=(1, 1, 1), stride=(1, 1, 1), bias=False)\n","        (c_bn): BatchNorm3d(2048, eps=1e-05, momentum=0.1, affine=True, track_running_stats=True)\n","      )\n","      (relu): ReLU(inplace=True)\n","    )\n","    (pathway0_res1): ResBlock(\n","      (branch2): BottleneckTransform(\n","        (a): Conv3d(2048, 512, kernel_size=(1, 1, 1), stride=(1, 1, 1), bias=False)\n","        (a_bn): BatchNorm3d(512, eps=1e-05, momentum=0.1, affine=True, track_running_stats=True)\n","        (a_relu): ReLU(inplace=True)\n","        (b): Conv3d(512, 512, kernel_size=(1, 3, 3), stride=(1, 1, 1), padding=(0, 1, 1), bias=False)\n","        (b_bn): BatchNorm3d(512, eps=1e-05, momentum=0.1, affine=True, track_running_stats=True)\n","        (b_relu): ReLU(inplace=True)\n","        (c): Conv3d(512, 2048, kernel_size=(1, 1, 1), stride=(1, 1, 1), bias=False)\n","        (c_bn): BatchNorm3d(2048, eps=1e-05, momentum=0.1, affine=True, track_running_stats=True)\n","      )\n","      (relu): ReLU(inplace=True)\n","    )\n","    (pathway0_res2): ResBlock(\n","      (branch2): BottleneckTransform(\n","        (a): Conv3d(2048, 512, kernel_size=(1, 1, 1), stride=(1, 1, 1), bias=False)\n","        (a_bn): BatchNorm3d(512, eps=1e-05, momentum=0.1, affine=True, track_running_stats=True)\n","        (a_relu): ReLU(inplace=True)\n","        (b): Conv3d(512, 512, kernel_size=(1, 3, 3), stride=(1, 1, 1), padding=(0, 1, 1), bias=False)\n","        (b_bn): BatchNorm3d(512, eps=1e-05, momentum=0.1, affine=True, track_running_stats=True)\n","        (b_relu): ReLU(inplace=True)\n","        (c): Conv3d(512, 2048, kernel_size=(1, 1, 1), stride=(1, 1, 1), bias=False)\n","        (c_bn): BatchNorm3d(2048, eps=1e-05, momentum=0.1, affine=True, track_running_stats=True)\n","      )\n","      (relu): ReLU(inplace=True)\n","    )\n","  )\n","  (head): ResNetBasicHead(\n","    (predictors): ModuleList()\n","    (pathway0_avgpool): AvgPool3d(kernel_size=[4, 7, 7], stride=1, padding=0)\n","    (dropout): Dropout(p=0.5, inplace=False)\n","    (projection): Linear(in_features=2048, out_features=400, bias=True)\n","    (act): Softmax(dim=4)\n","  )\n",")\n","[08/26 02:57:33][INFO] misc.py:  187: Params: 24,327,632\n","[08/26 02:57:33][INFO] misc.py:  188: Mem: 0.09085798263549805 MB\n","[08/26 02:57:34][WARNING] jit_analysis.py:  499: Unsupported operator aten::max_pool3d encountered 2 time(s)\n","[08/26 02:57:34][WARNING] jit_analysis.py:  499: Unsupported 
…
